models/1735936587.onnx (onnx, 416419 bytes, 4 tensors)

w1 f4 [128, 784]
000000 bd a6 2c bd 35 aa 08 bc 43 9d b6 3c ea 16 8f bd
       -0.0421512 -0.008341362 0.022291785 -0.069867924
000010 8b 12 8e bd 14 0a ed bb 25 aa 67 bd 3e b5 4a bd
       -0.069371305 -0.0072338674 -0.056558747 -0.049489252
000020 49 be 9e bd 4d 4e 7d bc f2 89 85 3d d9 2b 53 3c
       -0.07751138 -0.015460563 0.065204516 0.012888872
000030 72 1e 31 bd 11 b5 7d 3b b2 ff a2 bd 55 3f 59 3d
       -0.043241926 0.003871266 -0.07958926 0.053038914
000040 ad 89 de 3c 29 43 18 bd e3 4d 1b bd 86 96 5d 3d
       0.027165258 -0.037173424 -0.037916075 0.05409863
000050 6e d1 5e bd ca cd 9f bd 97 3d a1 3d a5 5a f3 3c
       -0.054398946 -0.07802923 0.078730755 0.029706309
000060 cd 57 0e 3d fd c7 8f 3d 4f d9 85 3d 74 7b 92 3d
       0.034751702 0.070205666 0.06535589 0.07152453
000070 e3 86 88 3c 92 2b d9 b8 f0 a2 15 3d c6 10 41 bd
       0.016665881 -0.00010355482 0.036532342 -0.047135137
000080 6e 23 87 bd 1a 96 33 3b 0a f2 a0 bd c8 44 5a bb
       -0.065985546 0.00274027 -0.07858665 -0.0033305157
000090 4a 4f 26 3c 79 cf 05 bd 9d 1d 64 bc 5b 80 39 bc
       0.01015074 -0.032668564 -0.013923076 -0.011322106
0000a0 4a 08 4c 3d 43 75 8c bd 0c 90 66 bd 63 0f fd 3c
       0.049812593 -0.068583034 -0.056289718 0.030891126
0000b0 f9 57 a3 3d 53 de 8e 3c 2a 65 06 bd ff e5 2b 3d
       0.07975764 0.017439997 -0.03281132 0.04196739
0000c0 45 8b 7a 39 5b 9b 99 3d f8 8a 0f bc 65 38 84 bd
       0.0002389374 0.07500335 -0.00876116 -0.06456069
0000d0 3b 04 1f 3d 57 92 ad bc b5 c0 47 3d bd 22 5c bb
       0.038822394 -0.021187944 0.048767764 -0.0033590042
0000e0 51 fe 5a 3d d8 ae c1 3c 9d ef 8b 3c 8e b1 58 3d
       0.05346519 0.023642942 0.01708203 0.052903704
0000f0 ed ac 20 bc 9a 44 97 bd 45 43 84 bd 67 87 a3 3d
       -0.009806854 -0.073861316 -0.06458143 0.0798481
000100 b4 f6 c5 bb c7 cf ee 3c f1 d3 50 3d 33 49 83 3d
       -0.006041372 0.02915181 0.050983373 0.06410446
000110 b1 b9 65 3d fb 98 37 bc 85 e6 96 3d 44 20 f2 bb
       0.056085292 -0.011205907 0.07368187 -0.0073891003
000120 b5 b5 98 3d 3a 89 04 3d 90 86 93 3d b3 bd 8e 3d
       0.07456533 0.032357432 0.072034 0.06969776
000130 98 43 57 3b 46 4b cd 38 ed 3d 8f bc f7 f1 08 bd
       0.0032846685 9.7891825e-05 -0.017485583 -0.03343388
000140 12 e1 55 bc c2 5b 6d bc 72 ca 65 3d 59 e6 10 3d
       -0.013054149 -0.014487209 0.05610127 0.035375927
000150 f0 c0 60 3c b1 e8 b6 bc 6c 8b ba bc aa 30 ab bd
       0.013717875 -0.022327753 -0.02277156 -0.08358891
000160 d4 b8 44 3d 51 ba cd 3c 73 fc 73 3d f7 99 bc 3c
       0.04802783 0.025113257 0.059566926 0.023022635
000170 07 b4 39 3d 6f 07 6b 3a b1 e8 aa 3c b0 da f7 3c
       0.045337703 0.0008965646 0.020862909 0.030255646
000180 0c 88 e8 3b de 7b 6c 3d 65 c1 a8 3d c7 29 14 bd
       0.007096296 0.057735316 0.08240012 -0.036172654
000190 1e 34 28 bd c0 d3 b6 3d f2 c3 d2 3c 8c 6e 0b 3c
       -0.041065328 0.08927107 0.0257282 0.008510243
0001a0 b1 2b 15 bc c8 78 44 3d 21 17 0e bc ee 70 65 bd
       -0.009104655 0.04796675 -0.008672507 -0.0560159
0001b0 4f d1 07 3c ac 01 99 3d 50 43 fc bc b3 2d 2d bc
       0.008289649 0.07471022 -0.030793816 -0.010569978
0001c0 ab 62 07 3d c1 f7 1e 3d 36 37 d4 bc 09 12 9a bc
       0.03305308 0.038810495 -0.025905233 -0.018807428
0001d0 ed 2e 8d 3c 6d f7 a3 bd b8 e7 ce bc 6e 78 4f 3c
       0.01723429 -0.08006177 -0.025256976 0.01266299
0001e0 c8 51 54 3d 5d b6 c3 3c 37 57 e6 bc 96 5d 9a 3d
       0.051835805 0.023890669 -0.02811776 0.07537381
0001f0 2a 26 7c 3d a6 3a 89 3b 4e 7a 1b bd 0b e5 39 b9
       0.061559834 0.0041878996 -0.037958436 -0.000177283
000200 1e 8f 2b bc ae db 31 3c 6b d4 8f bd 17 19 0e 3b
       -0.0104711335 0.010855598 -0.070229374 0.0021682435
000210 ab 35 2f bd 9d fb e7 bc 62 81 a8 3c c2 60 7b 3d
       -0.04277579 -0.02831822 0.020569507 0.061371572
000220 a2 84 2f 3d 21 6e 57 bb 0d 49 8d bc 7a 99 f3 bb
       0.042851098 -0.0032872038 -0.017246747 -0.0074340673
000230 7a d0 0f 3d 88 9a c8 bc 48 8d fb 3c e7 cc 64 3d
       0.035110928 -0.024487749 0.030707017 0.055859473
000240 10 2d 3a 3d 2f 78 a3 bd 6c 89 49 bd ff 84 be 3b
       0.04545313 -0.079819076 -0.04920332 0.005814194
000250 a3 11 43 3d ab d8 de bc 8f 9c a5 3c b0 03 6c bd
       0.04762424 -0.027202925 0.020216255 -0.057620704
000260 f8 7e 3b 3d 8b 9a 73 bd 5e bd 98 bb bb 5b 45 3d
       0.045775384 -0.059473556 -0.004661246 0.048183184
000270 88 88 a4 bc 2b e2 86 3d c0 24 2e bd 21 da f9 3c
       -0.020084634 0.06586107 -0.042515516 0.03049952
000280 de 2f 8a bc 8a 51 2b 3d 82 c5 8d bd 79 2d 76 3d
       -0.016868528 0.04182581 -0.06922437 0.06010196
000290 28 ca 82 3d ba 34 96 3d a2 83 a3 bd c7 d9 cf bb
       0.063862145 0.073342755 -0.07984091 -0.0063430998
0002a0 cc 62 85 3c e5 70 88 bc 6a 39 b4 bc f2 69 9d bb
       0.016282462 -0.016655395 -0.022000033 -0.0048038894
0002b0 58 89 70 3d 97 14 9a 3d 4b 6e 19 3d 88 f1 4e bd
       0.05872473 0.075234585 0.0374587 -0.05052331
0002c0 5a 5f 99 bc e1 36 fd 3c 39 8f 4f bc e8 05 f9 bc
       -0.018722225 0.030909957 -0.012668424 -0.030398324
0002d0 0e 41 3d 3d 69 69 5e 3c a7 da d9 3c db 4c 36 3d
       0.04620462 0.013574936 0.02659352 0.04450689
0002e0 1f a5 90 bd ad 72 b8 3b 40 f6 8a bd 94 96 1f bd
       -0.07062744 0.005628905 -0.0678525 -0.038961962
0002f0 c3 cb 6e 3d ce cd 39 3d 4f 99 a8 3b 55 28 f5 bc
       0.05829979 0.045362286 0.005145229 -0.029926458
000300 3b fb 98 bd 8e f0 32 bd 3f 74 eb 3c a8 62 67 3d
       -0.074697934 -0.043686442 0.028741954 0.05649057
000310 8c 23 85 bd 00 c8 63 3d 45 d1 4c bd de 87 83 3d
       -0.06500921 0.055610657 -0.050004262 0.06422399
000320 da 41 81 3d 0e 72 1a bd b6 ca 09 3d 6d 1e e6 3c
       0.06311388 -0.037706427 0.033640586 0.02809068
000330 62 7a c1 bc a4 ca d1 bc 68 69 ec bc 57 3e 20 3b
       -0.023617927 -0.025609322 -0.028858855 0.002445122
000340 94 3d 5f bd 33 1e 6e bd 88 17 f6 bc 19 7e 78 3d
       -0.054502085 -0.05813427 -0.030040517 0.06066713
000350 1a 3e a7 bd 46 a7 2f bc 41 8f 3e 3d 11 b3 e4 ba
       -0.08166142 -0.010721033 0.046523336 -0.0017448385
000360 72 ff e6 3b d2 b8 fb bc a9 6d ad bd 46 1a d2 bc
       0.0070494944 -0.030727778 -0.08468182 -0.025647294
000370 0e a4 8f 3d 4a bb b1 bc 44 e8 51 3d bd 03 06 bd
       0.07013713 -0.021695752 0.051246896 -0.03271841
000380 fb 42 94 3a 70 d2 c1 bc c1 55 a0 3d 4a 37 19 3d
       0.0011311466 -0.023659915 0.07828856 0.037406243
000390 6f 9c b5 3c 05 6e 2b 3d 79 77 6e 3d 14 3f 1e bb
       0.02216932 0.04185297 0.058219407 -0.0024146484
0003a0 ff 10 6f 3c 9c 7f 8a 3d 9f 1c ca 3d 0e 81 bf 3b
       0.0145914545 0.06762621 0.0986874 0.005844242
0003b0 b6 01 be 3d 1f 78 79 3d 0c 1c c3 bd 9b 66 a5 3c
       0.0927767 0.060905572 -0.09526834 0.020190528
0003c0 e2 f2 b4 bd e6 c0 ee bc 4e e4 4f 3d af 8f 94 bd
       -0.08835389 -0.029144716 0.050754838 -0.07253968
0003d0 8c 87 11 3d 02 0e 12 bd 12 45 9e 3c 3d 5d 88 bd
       0.03552966 -0.03565789 0.019320045 -0.06658409
0003e0 0d 57 a6 bc 80 ce a8 bb 7c b3 00 bb 38 6b 12 bd
       -0.02030518 -0.00515157 -0.001963823 -0.035746783
0003f0 ce e8 27 3d 34 46 90 bd e7 26 a2 bc 55 2f 38 3d
       0.040993504 -0.0704464 -0.01979394 0.044967014

b1 f4 [128]
000000 11 12 85 be de c5 8a 3f de 52 28 be 00 30 b4 bf
       -0.25990346 1.0841634 -0.16437861 -1.4077148
000010 39 90 91 3e a8 37 81 3f 89 35 f9 3f e6 ae d8 bf
       0.28430346 1.009511 1.9469463 -1.6928375
000020 b8 78 68 bc 83 d6 04 3f df 0e 3c bd e1 7e 84 be
       -0.014188938 0.5188982 -0.04591262 -0.2587805
000030 27 7e 8d bf d7 05 13 3f 23 1e dd 3e 1f c3 5a 3e
       -1.1054124 0.57430786 0.43187055 0.21363495
000040 15 2a 6b 3d 95 07 4e bf fa e8 40 bf 7d 93 e2 3e
       0.05741318 -0.8048032 -0.75355494 0.4425315
000050 27 78 26 be 6b 36 fe bd f9 29 04 c0 80 30 ff bf
       -0.16256772 -0.12412723 -2.0650618 -1.9936676
000060 6d b8 87 3f 41 70 f3 3f a5 23 16 be 60 f6 e0 be
       1.0603157 1.9018632 -0.14662035 -0.4393797
000070 3a f7 86 3f da ac 90 3d 06 22 27 be 97 71 5d bf
       1.0544198 0.07064219 -0.16321573 -0.8650145
000080 8f f6 7c bf 5f 62 7a 3f e2 fb c3 be a2 f5 19 bf
       -0.9881372 0.9780635 -0.3827811 -0.6014043
000090 c7 ca bb 3f 03 2e 09 bf 18 8d 73 3e 44 c8 27 bd
       1.4671258 -0.53585833 0.23784292 -0.040962473
0000a0 b7 86 8f 3f 3c 50 3f 3e be 30 b8 be df 71 0f 3f
       1.1212987 0.1868295 -0.35974687 0.5603313
0000b0 d9 49 0b 3e cc 2a 62 3f 8e 61 94 bf 6f 33 e2 3f
       0.1360239 0.8834655 -1.1592271 1.7671946
0000c0 ef 45 bb 3f c4 f0 a2 3f eb 31 16 40 c2 ae 9c 3f
       1.4630717 1.2729726 2.3467968 1.2240832
0000d0 c9 d3 ea 3d 60 88 b5 be 06 22 86 bf f2 f6 59 bf
       0.11466176 -0.35455608 -1.0479133 -0.85142434
0000e0 87 85 03 c0 8c ec 51 3f 55 0e 5f be 33 84 03 3e
       -2.0550249 0.82001567 -0.21782811 0.12843399
0000f0 1c c9 f0 3d d6 55 f1 3e 43 37 1e bf 87 8a 8c 3e
       0.117571086 0.471358 -0.6180307 0.27449438
000100 1a f5 f6 be 4d 4f cd bf f7 bb 0e 3f 4c 52 8d bf
       -0.48233873 -1.6039826 0.5575556 -1.104074
000110 fe ca 35 bf 84 c3 96 3e 4a 16 23 3e 5b 59 0c 3f
       -0.71012866 0.29446042 0.15926471 0.54823846
000120 14 1d 7d bf 55 bb 2d 3f d5 c6 29 3e 7d 55 56 3f
       -0.98872495 0.6786397 0.16579755 0.83724195
000130 84 30 d7 bf 3b 26 2e c0 48 73 85 bf 30 80 99 bf
       -1.6811681 -2.7210834 -1.0425806 -1.1992245
000140 02 c5 83 bf f0 f0 ba 3f 04 20 94 3e 3a 64 d2 bf
       -1.0294497 1.4604778 0.28930676 -1.6436837
000150 aa d4 4b be f0 2d 3d 3f 0d 08 50 3f 28 04 1c 3f
       -0.19905344 0.7389822 0.81262285 0.6094384
000160 d2 b2 9e 3e 78 71 ca bf a7 29 8a 3f 47 dc 2c 3f
       0.30995804 -1.5815878 1.0793961 0.67523617
000170 e6 6a b6 3e 1e af 8a bf 9e ae b0 bd 38 77 a4 3f
       0.35628432 -1.0834692 -0.086270556 1.2848883
000180 24 4c 8e be 85 25 8e bf fc 32 bd 3d 3a e7 2c 40
       -0.27792466 -1.11052 0.0923824 2.701613
000190 63 e1 40 be 38 ae 24 be aa fd 16 bf 2e ab 52 3f
       -0.18835978 -0.16082084 -0.5898081 0.8229245
0001a0 d6 cd ed bf 8d f7 11 40 80 c4 ab 3e 6c 9a 5d 3f
       -1.8578441 2.2807343 0.33548355 0.86563754
0001b0 c4 01 a9 3e 05 c2 e6 be 72 44 e3 bf 5c 89 64 bf
       0.3300916 -0.450699 -1.7755263 -0.89272094
0001c0 16 7d 98 bf 7d b8 aa 3d d7 0e c4 be 46 c9 7d bf
       -1.1913173 0.083359696 -0.38292572 -0.99135244
0001d0 3d a7 f1 be 42 d7 34 3f 17 84 43 bf 4a 21 41 be
       -0.47197905 0.7064096 -0.7637343 -0.18860355
0001e0 06 da 7b 3f 30 d5 ce be 68 4e 17 40 4f 2b 4a be
       0.9837955 -0.40397024 2.3641605 -0.19743083
0001f0 15 49 c6 bf 46 a7 0f 3f 2d ec d5 bf 64 c6 36 bf
       -1.5491053 0.56114614 -1.67127 -0.7139647

w2 f4 [27, 128]
000000 b6 0f 8a bd d7 fc cd 3d 05 83 22 be 44 2f 5b 3d
       -0.06741278 0.10057991 -0.15870292 0.053511873
000010 5e a5 5b 3d de 9d 2b be 25 95 0b 3e 73 2d 0f be
       0.053624503 -0.1675944 0.13631113 -0.13982181
000020 62 0b c4 3c 1c b4 03 39 d8 51 89 3d e3 10 22 be
       0.023931209 0.0001256023 0.067050636 -0.15826754
000030 e1 1e 13 be 43 7e 44 be 62 07 0e be ee 9f 85 3d
       -0.14367248 -0.1918879 -0.13870004 0.06524645
000040 51 44 19 3c bd 11 3d 3e a5 ff f4 bd f1 5b 61 bd
       0.009354667 0.18463798 -0.11962823 -0.055019323
000050 f2 31 31 bd 6c 18 07 be 60 cb a3 bb 54 9a 88 ba
       -0.043260522 -0.1319291 -0.0049986094 -0.001042197
000060 9b 53 ea ba e2 33 53 be 85 ea 90 3d 12 b1 10 3e
       -0.00178777 -0.2062526 0.07075981 0.14130047
000070 06 05 09 be a1 0f 0b bc a5 e3 21 3d be da f8 3b
       -0.13380823 -0.008487613 0.03952374 0.0075944355
000080 7d 0e 11 3e 32 ec a5 bd 1a 64 9c 3d ea 52 5d 3c
       0.14165683 -0.08101691 0.0763628 0.013508538
000090 a4 9a 46 3d 6a 64 29 be 95 5e 11 3e 37 c1 fc bc
       0.04848732 -0.16542211 0.14196236 -0.03085385
0000a0 4b fc 0b be de 1b 3c be cc ad 23 3d ab ee 40 3d
       -0.13670461 -0.18370005 0.039960667 0.04710261
0000b0 46 ce 96 3d 96 e7 14 3e 62 3c 7f bd 7c cf 20 3e
       0.07363562 0.14541468 -0.062313445 0.15704149
0000c0 06 dd 05 be 81 16 b5 3c 58 e3 16 3d ce 36 2d 3e
       -0.13072595 0.022105457 0.036837906 0.16915438
0000d0 cb 74 26 be fb ac 08 be 15 7d 38 3d a1 47 36 be
       -0.1625549 -0.13347237 0.045041163 -0.17800762
0000e0 f3 31 ea bd 6e 96 30 3e 20 9b 20 3e 3e ad c6 bd
       -0.11435308 0.17244884 0.15684175 -0.09701012
0000f0 7a 41 0f be a2 f4 fa bd e1 7c fa bd 74 6f 15 3c
       -0.13989821 -0.12253691 -0.1223085 0.009120811
000100 50 e4 35 3e c3 9c 0b 3d 0b c7 24 bd ea 32 1d 3e
       0.17762876 0.034085046 -0.040228885 0.15351453
000110 75 74 4f bc 01 f7 49 be 6a 8b 31 3e 5b 3c ec 3d
       -0.012662043 -0.19723131 0.17338338 0.115349494
000120 b3 4d b6 3d be 7d 09 3c 11 44 11 be 45 fc 03 be
       0.08901539 0.008391796 -0.14186122 -0.12889202
000130 24 74 41 be da 21 2e 3e fb ad 30 3e 7a 36 1b be
       -0.1889196 0.17005101 0.17253868 -0.151575
000140 96 c2 a4 bd 60 c9 1d be 22 fa 92 bd bd 11 b9 3d
       -0.08044927 -0.1540885 -0.07176615 0.090365864
000150 18 4e 43 be 5c b9 e6 3d a7 d4 25 be 2b ee 02 3e
       -0.19072759 0.11265823 -0.16194402 0.12786166
000160 34 37 e0 3d 86 4b 53 bd 86 cf 0d be c2 dd 2a bd
       0.10948029 -0.051585697 -0.13848695 -0.04171539
000170 95 d4 1f be 1c 07 b0 bd da 48 fe bd aa f3 9a bd
       -0.15608437 -0.08595106 -0.12416239 -0.075660065
000180 6b c3 b4 bd 2a b9 65 3d 68 7a a8 bc 20 b0 0e be
       -0.088263355 0.05608479 -0.02056618 -0.13934374
000190 ae 39 14 3e 2e d4 e4 3d 83 ca 97 bd 6c b2 58 bd
       0.14475128 0.111732826 -0.07411673 -0.05290453
0001a0 6a c2 49 3d f0 c9 83 3d 0b 0a fa bd 20 9e 9e 3c
       0.049257673 0.06435001 -0.12208947 0.01936251
0001b0 96 18 9f 3d 11 c9 d0 3d 3f 42 74 bc a9 6c 41 3e
       0.07768361 0.101946004 -0.014908372 0.18889107
0001c0 b9 be a6 3d a2 d0 a1 3d 8c 92 3f be d4 42 ff bd
       0.08141846 0.07901122 -0.18708247 -0.12463918
0001d0 a2 2d c8 bd 3a c0 ab bc 8f 98 b0 bd 3f 2a 4e be
       -0.09774329 -0.020965684 -0.08622848 -0.20133303
0001e0 b0 48 87 bd 7e 0d 3d 3d cb de 41 be 81 9b d1 bc
       -0.06605661 0.046155445 -0.18932645 -0.025586845
0001f0 2b 6e 7b bd d7 3c 67 bd 69 cb a4 bd 52 3d b8 3d
       -0.06138436 -0.056454506 -0.0804661 0.08996071
000200 a1 ce 12 3d af 45 59 3e 67 c4 dc bd 33 01 d6 3d
       0.035841588 0.21217988 -0.10779648 0.104494475
000210 ca 3d 26 be d6 4a 9a 3d d9 71 48 bd 64 ff 4c bd
       -0.16234508 0.07533805 -0.0489367 -0.050048247
000220 58 5f 20 be 5d d0 df 3d a6 f1 c2 3c 26 e6 09 3e
       -0.15661371 0.10928414 0.023796868 0.13466701
000230 28 d3 36 3e 05 b7 f0 bc ca 89 a4 3d d1 0a f1 bc
       0.17853987 -0.029384146 0.08034094 -0.029424103
000240 46 60 6a 3e be 1e bc bd 1c 31 30 be 02 59 5d be
       0.22888288 -0.09185551 -0.17206234 -0.21615985
000250 e9 43 3f be 79 03 28 bd 03 3b 81 bd 0c c6 29 be
       -0.1867825 -0.041018937 -0.06310084 -0.16579455
000260 a3 e3 16 bd 8a 57 cf bd 5b ee da bd 46 cd b7 3c
       -0.036838185 -0.101241186 -0.10689994 0.02243675
000270 db 0c 24 3e 17 f9 0a be f0 ea a8 3d 14 6a 1d be
       0.16020529 -0.13571583 0.08247936 -0.15372497
000280 68 82 fc bd 55 f4 b7 be 34 91 f1 bd fd 4c 6a 3d
       -0.123295605 -0.35928598 -0.117952734 0.057202328
000290 3d ad 1c be 52 f2 14 3e e4 35 33 3e e9 5d b0 bd
       -0.1530046 0.14545563 0.17501026 -0.08611662
0002a0 ba 64 2a 3e 83 63 97 3e d9 38 cc 3c 7a 7f f6 3d
       0.16639987 0.2956811 0.02492945 0.12036033
0002b0 24 ec 1c 3e 03 58 77 bb 21 ec 24 3d f9 c8 d8 3c
       0.15324455 -0.0037741668 0.040264253 0.026463019
0002c0 92 44 5f be c4 70 40 be 61 ae 08 be ab 2a e1 bd
       -0.21803501 -0.18793017 -0.1334777 -0.109944664
0002d0 85 98 9d 3d 0d 91 c1 3d d6 99 20 3e 6c 30 8b 3c
       0.076951064 0.09451494 0.15683684 0.016990863
0002e0 78 4c 1e be b3 5a d7 3d 5e 5a c0 3d 49 86 54 3b
       -0.15458858 0.105153464 0.09392236 0.0032428673
0002f0 30 7d 11 bc bc 22 0e 3c cf 64 84 3a 6a 25 76 be
       -0.008879945 0.0086752735 0.0010100844 -0.2403771
000300 26 0b 4a 3d 8e 63 fa 3d f4 49 32 be cf c9 86 bd
       0.04932704 0.1222602 -0.17411023 -0.06581461
000310 cf 3a e6 bc 40 6b b6 bd 6c 6e 20 3e ae 91 58 3e
       -0.028104214 -0.08907175 0.15667123 0.21149322
000320 96 c4 86 bd d9 8d cd 3d d1 2f 43 be 83 24 17 3e
       -0.065804645 0.10036821 -0.1906121 0.14760022
000330 9d e9 04 3e 0e bd 0b 3e cd 83 67 3d 5c 34 21 ba
       0.12979741 0.13646337 0.05652218 -0.0006149465
000340 a1 bf db 3d 71 2d bd 3d 6d 62 a1 be d2 c0 09 be
       0.1072991 0.09237183 -0.31520405 -0.13452461
000350 78 34 3b be 83 7b a9 bd b1 cf 79 be 14 47 5b 3e
       -0.18281734 -0.08275511 -0.24395634 0.21413833
000360 cf 19 44 3e 09 79 1c be 7c 44 82 bc fc a7 5c 3d
       0.1915047 -0.15280546 -0.015901797 0.05387114
000370 7a 93 4f be 67 c7 31 bd 0d eb 59 bd 0c 09 b1 be
       -0.20271102 -0.043403056 -0.053202678 -0.34577215
000380 17 15 31 be 6f 91 7e bb c7 c2 11 be 0f eb ab 3e
       -0.17293201 -0.003884401 -0.14234458 0.33577773
000390 69 ee fc 3d 91 e7 3b 3d 10 fb 12 be 43 6b 95 be
       0.12350161 0.045875136 -0.14353585 -0.29183397
0003a0 90 05 ce 3c a3 b8 05 3e 65 c6 90 be ed b2 1f bd
       0.025149137 0.13058715 -0.28276363 -0.038988996
0003b0 a6 01 d6 3c 7d 2c b9 bd 0a ae 2f 3e a2 c3 27 3e
       0.026123833 -0.090416886 0.17156234 0.16383222
0003c0 3d df 30 bc 08 55 21 3e c9 8f 15 3e df c9 38 be
       -0.010795412 0.15755093 0.14605631 -0.18045758
0003d0 0d e0 06 3e 53 fe 7b 3e aa 3e bf 3d 57 bb 9e 3e
       0.13171406 0.24608736 0.09338124 0.31002304
0003e0 22 9c 10 3e ee 67 f8 bd bc 3c 6c bc e5 b9 52 be
       0.1412206 -0.12129198 -0.014418777 -0.20578726
0003f0 55 67 be bd d4 82 84 be 6b 97 2c 3e ff 7e 33 3d
       -0.09297053 -0.25881064 0.16854636 0.043822285

b2 f4 [27]
000000 ad 3f 9f bf e3 ce 2d bf f3 09 0a bf 92 75 60 3d
       -1.2441307 -0.6789381 -0.5392143 0.054799624
000010 b6 c3 6a 3e a6 d1 d7 bd 34 be d0 3f 90 55 04 be
       0.2292622 -0.10538034 1.6308045 -0.12923265
000020 e7 58 00 bf fe ff 06 bf d0 c1 41 be 89 17 d6 3f
       -0.50135654 -0.52734363 -0.1892159 1.6725932
000030 7a 61 8d 3e d7 c9 1a 3d ad 1d b6 3f 0a 92 8e 3e
       0.2761343 0.037790146 1.4227806 0.27845794
000040 bc 44 55 3f 4b 6e 89 bf 3f 29 6c bf 57 9e 9d 3f
       0.83308005 -1.0736784 -0.92250437 1.2313946
000050 dd 25 89 3f be 9d ed 3f 88 e1 05 40 7c 12 29 3f
       1.071468 1.8563764 2.0918903 0.6604383
000060 cc ba 80 bf 34 0d 23 3f 25 a1 70 be
       -1.0057006 0.6369202 -0.23498972
