models/1736192989.onnx (onnx, 416419 bytes, 4 tensors)

w1 f4 [128, 784]
0	0x3d05568f	0.03255325
1	0x3c8ff08d	0.017570758
2	0xba573498	-0.0008209436
3	0x3c67eee1	0.014156074
4	0x3b5dce25	0.0033844796
5	0xbd228384	-0.039676204
6	0x3d04532a	0.032305874
7	0x3d315c50	0.043300927
8	0xb9853a1a	-0.00025411026
9	0x3ccbb6f8	0.02486752
10	0x3d30ef11	0.04319674
11	0xbd2492d4	-0.04017909
12	0x3da51b79	0.080618806
13	0x3c90f367	0.017694188
14	0x3d390c28	0.04517761
15	0xbd8b0bf7	-0.067893915
16	0xbd245395	-0.040118773
17	0x3d996f95	0.07491986
18	0xbcf50c29	-0.029913025
19	0xbd6405a7	-0.055669453
20	0x3d663dfc	0.056211457
21	0xbcaaedad	-0.020865286
22	0x39bf18c8	0.00036448822
23	0x3c68debf	0.014213263
24	0x3d96421b	0.07336827
25	0xbd843797	-0.064559154
26	0xbc7465c6	-0.014916843
27	0xbd0d94a7	-0.034565594
28	0xbd9dd952	-0.07707466
29	0x3d35f21b	0.044420343
30	0xbce22806	-0.027606975
31	0xbd9f3446	-0.07773642
32	0x3d729b58	0.05923018
33	0xbd0eff36	-0.034911357
34	0x3cc83604	0.02443982
35	0xbd8ca13f	-0.06866693
36	0xbd812753	-0.063063286
37	0x3d8d2e07	0.06893545
38	0x3cc8d2ff	0.024514673
39	0x3c303afc	0.0107562505
40	0x3d431990	0.0476318
41	0xba507d2f	-0.0007953224
42	0xbcdb1786	-0.026744615
43	0x3d709f66	0.058745764
44	0x3c154d6e	0.009112699
45	0x3c2876e3	0.010282251
46	0x39204d54	0.00015287596
47	0x3d82a7f3	0.0637969
48	0x3d17c9e9	0.03705779
49	0xbd07d902	-0.03316594
50	0x3d017cf2	0.031613298
51	0xbd92bfca	-0.07165487
52	0x3d62f7cc	0.0554121
53	0xbd364f2f	-0.04450911
54	0x3d239121	0.039933328
55	0x3d6d718f	0.057969626
56	0x3c9fb3b5	0.01949487
57	0x3d857d78	0.06518072
58	0xbc1e6aaf	-0.00966899
59	0xbadff6d3	-0.0017087109
60	0x3d927f8a	0.071532324
61	0xbbebea02	-0.0071995268
62	0xbca5df48	-0.02024807
63	0xbca113f1	-0.01966283
64	0x3d48e738	0.049048632
65	0xbcb58d4e	-0.022162106
66	0x3d2e42b9	0.0425441
67	0xbd353022	-0.044235356
68	0xbd3b9f55	-0.045806248
69	0xbd27505b	-0.040848117
70	0x3d36eb6f	0.04465812
71	0x3d774355	0.060366947
72	0x3d0320e8	0.032013804
73	0x3d3713f6	0.04469677
74	0x3da29b65	0.079397954
75	0x3d2dd618	0.042440504
76	0x3d6afef3	0.057372045
77	0x3dad7583	0.08469679
78	0x3daa9bfb	0.08330532
79	0x3daa49c2	0.083148494
80	0xbcd0a4ad	-0.025469149
81	0xbcf95845	-0.030437598
82	0x3d8dd483	0.06925299
83	0xbcaa5579	-0.02079271
84	0xbd30b72e	-0.043143444
85	0x3d178655	0.036993343
86	0x3d58eefb	0.052962285
87	0x3db05a36	0.08610956
88	0x3a36c46d	0.0006972019
89	0x3bb331ce	0.0054685837
90	0x3c9898e1	0.018627586
91	0x3986089d	0.0002556489
92	0x3d22ef15	0.039778788
93	0xbc1a8211	-0.009430424
94	0x3db01764	0.085982114
95	0x3e0970ac	0.13421887
96	0x3c9a5211	0.01883796
97	0x3ddbaa23	0.107258104
98	0xbd2192fd	-0.03944682
99	0x3d92979c	0.071578234
100	0x3d3e200e	0.04641729
101	0x3d4b7c2b	0.049678963
102	0xbd59f92d	-0.05321615
103	0xbd1b4b4a	-0.037913598
104	0xbd57c351	-0.052676503
105	0xbd70b66b	-0.058767717
106	0x3d52a86c	0.05143015
107	0x3db76aba	0.08955903
108	0xbd2b1135	-0.041764457
109	0x3a1687a7	0.00057422597
110	0xbb087ade	-0.0020825188
111	0xbd01b978	-0.031671017
112	0xbc6ffdda	-0.014647925
113	0xbcc6fca3	-0.024290388
114	0xbc98e0e7	-0.01866193
115	0x3d396f2a	0.04527203
116	0xbbfad395	-0.007654617
117	0xbd47f707	-0.048819568
118	0xbd6dade9	-0.05802718
119	0x3dc7a5ee	0.097484455
120	0x3d8cb225	0.06869916
121	0x3d8b4e65	0.06802062
122	0x3d9d1f70	0.07672012
123	0x3ddfb147	0.10922485
124	0x3d086cb3	0.03330679
125	0x3da81aa7	0.082082085
126	0x3d13efd6	0.036117397
127	0xbd8dca1a	-0.069233134
128	0xbc854165	-0.016266534
129	0xbd20981e	-0.03920757
130	0xbd7d2fd1	-0.06181318
131	0xbcea04ff	-0.028566835
132	0x3d3a2985	0.045449752
133	0x3d38a80a	0.04508213
134	0xbc098f9c	-0.008396056
135	0x3cde5bad	0.027143324
136	0x3d9e3072	0.07724084
137	0xbd63923a	-0.055559374
138	0xbd985cb9	-0.074395604
139	0xbd39ef4a	-0.04539422
140	0xb6758654	-3.6586034e-06
141	0xbd362b63	-0.04447497
142	0x3dac70f8	0.084199846
143	0xbd2014f4	-0.039082482
144	0x3d0b22ca	0.033968724
145	0xbd3516ee	-0.04421132
146	0x3d046adb	0.032328468
147	0x3d93eb9e	0.07222675
148	0xbd4d8838	-0.050178736
149	0xbd51fb05	-0.05126478
150	0x3d823335	0.06357423
151	0xbbf66785	-0.0075196647
152	0x3bec9cae	0.007220826
153	0x3d490e7f	0.04908609
154	0xb9867a6d	-0.00025649686
155	0x3c7b2f88	0.015331157
156	0xbc937263	-0.01799888
157	0xbde8caa8	-0.113667786
158	0xbc01b636	-0.007916978
159	0xbd274922	-0.04084123
160	0xbd61016e	-0.054933004
161	0x3d7b335c	0.061328277
162	0xbbe57f66	-0.0070037125
163	0xbba72302	-0.005100609
164	0xbc7a2a8e	-0.015268935
165	0xbd2d9749	-0.042380605
166	0xbd549160	-0.051896453
167	0x3d0f2fa6	0.03495755
168	0xbcfbd828	-0.03074272
169	0x3d8fda42	0.07024051
170	0xbd2ba271	-0.041902963
171	0x39fffd40	0.00048826076
172	0x3d19abfc	0.037517533
173	0xbcac02fb	-0.020997515
174	0xbd00c1c0	-0.031434774
175	0x3c2c4d03	0.010516408
176	0xbc8225f8	-0.015887246
177	0xbd07d010	-0.03315741
178	0xbcefed90	-0.029288083
179	0xbd1c7739	-0.038199637
180	0x3d1f533a	0.03889773
181	0xbc89f2c1	-0.016839387
182	0xbca09f0f	-0.019607095
183	0xbb800ff7	-0.003908153
184	0xbca14af6	-0.019689064
185	0x3bc56997	0.00602455
186	0xbd3c1ed5	-0.04592784
187	0x3d7daa65	0.06193008
188	0x3d0fcf3c	0.035109743
189	0xbd44f047	-0.04808071
190	0x3c0b3aa4	0.008497868
191	0x3d8a3c52	0.067497864
192	0x3dac9255	0.08426348
193	0xbd917f80	-0.07104397
194	0x3c37a59b	0.011208917
195	0x3d6c5517	0.057698335
196	0xbd9c18f2	-0.076219454
197	0x3d3f852f	0.046757873
198	0x3cebd0c3	0.028786069
199	0x3d620a88	0.055185825
200	0xbd171ba1	-0.036891583
201	0xbd5f5f1e	-0.05453407
202	0x3c0588bf	0.008150279
203	0xbd0c4519	-0.034245584
204	0x3cc4ea0b	0.024037382
205	0x3dc69b81	0.09697629
206	0xbd14f4ad	-0.036366154
207	0x3e0049eb	0.12528197
208	0x3c63da97	0.013907096
209	0x3d1c8bde	0.038219325
210	0xbb8e9767	-0.0043515447
211	0xbd149962	-0.03627909
212	0x3cc85851	0.024456175
213	0xbdb1d34a	-0.08682878
214	0x3d53c0fb	0.051697712
215	0x3c489456	0.012242397
216	0xbaa0a59f	-0.001225639
217	0xbd336bc0	-0.04380393
218	0x3d981884	0.07426551
219	0xbc98645e	-0.018602546
220	0x3d20b5fa	0.039236046
221	0xbd4e0ec9	-0.05030707
222	0xbda206f5	-0.07911483
223	0x3c18f5af	0.009335919
224	0x3d024d4b	0.031811994
225	0x3c6f4e30	0.014606044
226	0xbd055fa4	-0.032561913
227	0xbd469c4d	-0.048488904
228	0xbd9150a5	-0.0709546
229	0xbd1bcc75	-0.038036782
230	0xbd70bd75	-0.05877443
231	0xbc1cd1e6	-0.009571528
232	0x3d719fbb	0.05899022
233	0x3b01436c	0.0019724024
234	0x3db82307	0.08991056
235	0x3dd542fb	0.10413166
236	0x3e01843d	0.12648101
237	0x3c51c3d1	0.012803034
238	0xbd24f3f4	-0.040271714
239	0xbd4a1c2e	-0.04934328
240	0xbdace56c	-0.08442196
241	0xbdcb4345	-0.0992494
242	0xbdd4785d	-0.1037452
243	0xbdc1b1b1	-0.0945772
244	0x3d0a849d	0.033817876
245	0x3d409d28	0.047024876
246	0x3dc88510	0.09791005
247	0xbd61d6c2	-0.05513645
248	0x3d9784a1	0.07398344
249	0x3a4c924f	0.0007803784
250	0xbcd8506e	-0.02640554
251	0xbcf98f5c	-0.030463867
252	0xbd5c8763	-0.053840052
253	0x3c411a53	0.011786061
254	0x3ca7ebec	0.020498239
255	0xbb1e7875	-0.0024180685

b1 f4 [128]
0	0x3de79992	0.11308588
1	0x400fa1e6	2.2442565
2	0x3ebb376d	0.36565724
3	0xbfd65c61	-1.6746942
4	0x3f9833cc	1.1890807
5	0xbe01663f	-0.1263666
6	0x3e4cc35b	0.19996397
7	0x3fca3409	1.579713
8	0x3f477705	0.77915984
9	0xbfafc0cb	-1.3730711
10	0x3f230d40	0.6369209
11	0xbf578db8	-0.8420062
12	0x3b9cc7a0	0.0047845393
13	0xbf2960ea	-0.66163504
14	0xbf06d22a	-0.52664435
15	0x3fe7a5df	1.8097495
16	0xbf6525b4	-0.89510655
17	0xbf2866fa	-0.6578213
18	0xbf6c1370	-0.9221716
19	0xbfa327e4	-1.2746549
20	0xbffc318b	-1.9702619
21	0x40024b37	2.0358407
22	0xbe679ddc	-0.22618812
23	0x3f6b7449	0.9197431
24	0xbeeeb709	-0.4662402
25	0x3d946f0f	0.07247745
26	0x3ed8f382	0.42373282
27	0xbf6a84c4	-0.91608834
28	0xbce81021	-0.028328003
29	0x3ca0f6a9	0.019648867
30	0x3f916563	1.1359066
31	0x3f18f246	0.5974468
32	0xbf1e66a9	-0.61875397
33	0x3f41100e	0.7541512
34	0x3f017611	0.5057078
35	0xbf20d6fb	-0.62828034
36	0x3ebd360e	0.36955303
37	0x3dc1e53a	0.094675496
38	0xbfd51d54	-1.6649575
39	0xbf2c2db4	-0.6725724
40	0xbefc481d	-0.49273768
41	0xbe8f0b0f	-0.27938125
42	0xbf205d00	-0.62641907
43	0xbf84bdf7	-1.0370473
44	0xbfb66db9	-1.4252235
45	0x3f634af2	0.8878623
46	0x3ff04668	1.8771486
47	0xbea8f414	-0.32998717
48	0x3efc25ac	0.4924749
49	0xbe5c74c1	-0.21528913
50	0xbfc6fafb	-1.5545343
51	0xbf345cad	-0.7045391
52	0xbd8f2a19	-0.06990451
53	0x3fac0785	1.3439795
54	0xbf1bd924	-0.60878205
55	0xbe8d9012	-0.2764898
56	0xbee3b041	-0.4447041
57	0xbf23da8d	-0.6400536
58	0xbe42e257	-0.19031654
59	0x4000799a	2.007422
60	0xbdd9b93f	-0.10631036
61	0xbf98725d	-1.1909901
62	0xbe39cf55	-0.18145497
63	0xbf767e2d	-0.9628628
64	0x3fd7c6ee	1.6857584
65	0x3f9e5482	1.236954
66	0xbe1b052a	-0.15138689
67	0xbee24f0b	-0.4420093
68	0xbc8e5575	-0.017374733
69	0xbf12b196	-0.57302225
70	0xbe896a89	-0.26839092
71	0xbf98c34a	-1.1934597
72	0xbd535940	-0.051598787
73	0xbf7837e1	-0.96960264
74	0xbf59ec18	-0.85125875
75	0x3bfac3da	0.007652742
76	0x3f57ebc7	0.8434414
77	0x4024dadf	2.5758588
78	0xbf234838	-0.6378207
79	0x3f6b50cf	0.9192018
80	0x3f996fb4	1.1987214
81	0x3eaf95ce	0.3429398
82	0xbfa68b08	-1.3011179
83	0xbfe1ee5b	-1.7650865
84	0x3eed20c4	0.4631406
85	0xbfe335ac	-1.7750754
86	0xbfd8f7f5	-1.695067
87	0xbf56e3b5	-0.83941203
88	0x3f33e536	0.70271623
89	0xbed3fe05	-0.4140474
90	0xbe1280af	-0.14306901
91	0x3d484e43	0.04890276
92	0x3d2a092c	0.041512653
93	0xbfb2e7fa	-1.3977044
94	0xbf28f09d	-0.65992147
95	0x3f232f9a	0.6374451
96	0xbf66ea17	-0.9020094
97	0xbddd3383	-0.10800841
98	0xbfc585af	-1.5431422
99	0xbf318804	-0.6934817
100	0x3e36a8f9	0.17837895
101	0xbf69424f	-0.91116804
102	0x3f461295	0.77372104
103	0xbefb3477	-0.49063465
104	0xbfb69405	-1.4263922
105	0xbf50fe03	-0.8163759
106	0xc006d6ad	-2.1068528
107	0x3c61bb0f	0.013777508
108	0x3f79f76b	0.97643155
109	0xbe92b534	-0.28653872
110	0x3f7bb0a1	0.9831639
111	0x3fb8f498	1.4449644
112	0x3e65c91f	0.22440003
113	0xbf6c2188	-0.92238665
114	0x3ef47749	0.47747257
115	0x3f541384	0.8284228
116	0x3ea1c3dd	0.31594744
117	0x401d278f	2.4555395
118	0x3e950933	0.2910858
119	0xbee0fa1c	-0.43940818
120	0x3f1f81ad	0.62307245
121	0x3fff6575	1.9952837
122	0xbf35490c	-0.70814586
123	0xbd6c300e	-0.057663016
124	0x3f2a1784	0.6644213
125	0x3f883821	1.0642129
126	0x3f689b8d	0.9086235
127	0xbe0148e0	-0.12625456

w2 f4 [27, 128]
0	0xbdec44f9	-0.11536593
1	0xbc881379	-0.016610848
2	0xbe361b7b	-0.1778392
3	0xbd70cf14	-0.058791235
4	0x3db54774	0.08851519
5	0x3dbc1fb1	0.09185732
6	0xbda1f55e	-0.07908128
7	0xbdab9965	-0.08378867
8	0xbe145b6b	-0.14487998
9	0x3dffda0d	0.12492762
10	0x3cdbcafa	0.026830185
11	0x3de710fb	0.11282536
12	0xbd969cb7	-0.0735411
13	0x3e3fa675	0.18715842
14	0xbdc5e38e	-0.09662543
15	0xbbad8776	-0.005295689
16	0xbe36364a	-0.17794147
17	0x3e0b8963	0.13626628
18	0x3d94bf36	0.07263033
19	0x3e1b7d9e	0.15184638
20	0x3e1ba7dc	0.15200752
21	0xbe31c102	-0.17358783
22	0xbd6633ae	-0.05620163
23	0x3d95ca5e	0.07313989
24	0xbdd4b2d8	-0.10385674
25	0xbde8a8e6	-0.1136034
26	0xbe29adb0	-0.16570163
27	0xbe21777f	-0.1576824
28	0xbe218cfd	-0.15776439
29	0xbdec671d	-0.11543105
30	0x3cd55554	0.026041664
31	0xbe19015e	-0.14941928
32	0x3e0ad662	0.13558343
33	0xbe16f7e9	-0.14743008
34	0xbd939e56	-0.072079346
35	0x3e2c8034	0.1684578
36	0x3e2e1a71	0.17002274
37	0x3e0ee1b2	0.13953283
38	0xbdbb2b66	-0.09139137
39	0x3deefd26	0.11669378
40	0x3e3c263b	0.18373959
41	0xbe39fde1	-0.18163253
42	0x3e1e07b3	0.15432625
43	0xbd5c5421	-0.05379117
44	0x3bbd731e	0.0057815453
45	0xbe1c35b5	-0.15254863
46	0x3def231f	0.11676621
47	0x3e231212	0.15924862
48	0x3df55209	0.119785376
49	0xbdff7e4e	-0.124752626
50	0x3e154c40	0.14579868
51	0x3de986f3	0.11402693
52	0xbcb3cd03	-0.021948343
53	0x3bdd7c8f	0.0067592333
54	0x3e0ab12b	0.13544147
55	0x3e0f2ff7	0.13983141
56	0xbd1877ef	-0.037223753
57	0xbe107dd1	-0.14110495
58	0xbded840d	-0.11597452
59	0xbbe8ac5b	-0.0071006245
60	0xbb7cb241	-0.0038558396
61	0x3d8e79d8	0.069568336
62	0xbe425835	-0.18978961
63	0x3d67e69e	0.056616418
64	0xbe036e21	-0.1283498
65	0xbe4f8403	-0.20265202
66	0x3e1fc4ba	0.15602389
67	0xbb8db0b0	-0.0043240413
68	0x3dda5189	0.10660083
69	0xbe305149	-0.17218508
70	0x3c8230e6	0.015892457
71	0x3e0cc485	0.13746841
72	0xbda8ff34	-0.08251801
73	0xbe4988a5	-0.19681032
74	0x3a210154	0.00061418605
75	0x3c64c756	0.013963541
76	0xbe5bf3c6	-0.21479711
77	0xba705984	-0.00091686123
78	0xbe4a14f9	-0.19734563
79	0x3ce59408	0.028024688
80	0xbe444f2f	-0.19170831
81	0xbe2a07a5	-0.16604479
82	0xbe24fecb	-0.16112821
83	0xbdfdbc00	-0.12389374
84	0xbdfc1992	-0.12309565
85	0x3e16b567	0.14717637
86	0xbdf04d00	-0.117334366
87	0xbd9652c8	-0.07340008
88	0xbe59f532	-0.21284941
89	0xbd98ff72	-0.07470597
90	0xbe36abf3	-0.17839031
91	0xbda51f8a	-0.08062656
92	0xbda23297	-0.079198055
93	0x3df9e8a1	0.122025736
94	0x3e31e5ea	0.17372862
95	0xbe37fe64	-0.17968136
96	0xbd42ac92	-0.047527857
97	0x3cf2f685	0.029658565
98	0xbd9ac06e	-0.07556234
99	0x3cbc996e	0.02302238
100	0x3cba8c67	0.022772027
101	0x3e4821eb	0.19544189
102	0x3cf497b5	0.029857496
103	0xbe2377ee	-0.15963718
104	0x3cf8d764	0.030376144
105	0xbb442260	-0.0029927716
106	0xbe24a684	-0.16079146
107	0xbcdaa73a	-0.026691068
108	0xbd3358da	-0.043785907
109	0x3dfd70fd	0.123750664
110	0x3db3096b	0.08742031
111	0xbe3f9691	-0.1870978
112	0x3dc5fff2	0.09667958
113	0x3e352140	0.17688465
114	0xbe3345ab	-0.17507045
115	0xbe572c2b	-0.21012942
116	0x3c7caf4e	0.015422655
117	0xbda969ee	-0.082721576
118	0xbd8468ae	-0.064652786
119	0x3dccc741	0.09998942
120	0x3e389164	0.18024212
121	0x3c7bf171	0.015377388
122	0x3d9cb312	0.076513425
123	0x3e22f327	0.15913068
124	0x3e131135	0.14362033
125	0xbd893b2c	-0.06700739
126	0xbdd25362	-0.1026981
127	0xbe10044e	-0.14064142
128	0xbe27f0a1	-0.16400386
129	0xbe0de9cd	-0.13858719
130	0xbdacf6e3	-0.084455274
131	0x3cea565e	0.028605636
132	0xbe449f50	-0.19201398
133	0xbe504a4b	-0.2034084
134	0x3dc91aae	0.09819542
135	0xbcefb468	-0.02926083
136	0xbe5a2bec	-0.21305817
137	0xbd6b5155	-0.05745061
138	0x3d0c8baa	0.03431288
139	0x3e9cd8ab	0.30634055
140	0x3e0167ec	0.126373
141	0x3e57b2fc	0.21064371
142	0xbd645005	-0.055740375
143	0xbe52be01	-0.20580293
144	0xbe3283d4	-0.17433101
145	0x3c859fb3	0.016311502
146	0x3dc35043	0.09536793
147	0x3e381760	0.17977667
148	0xbe146a50	-0.1449368
149	0xbd89eeb2	-0.06734981
150	0x3e160e86	0.14653978
151	0x3d0ccef1	0.034377042
152	0x3cbae615	0.02281479
153	0x3e0d4210	0.13794732
154	0x3dc7f2f7	0.09763139
155	0x3de1833e	0.110113606
156	0x3e98fe3e	0.2988147
157	0xbd131823	-0.03591169
158	0xbe2dcf27	-0.16973554
159	0xbe78837f	-0.24268912
160	0xbe2d3373	-0.16914158
161	0xbd2ffc5e	-0.042965285
162	0x3c35f133	0.01110487
163	0xbd2ffa11	-0.04296309
164	0x3d5af4de	0.05345618
165	0x3e0c92ec	0.13727921
166	0xbd17851f	-0.03699219
167	0x3d2f21cd	0.042756844
168	0xbe1a2060	-0.15051413
169	0xbe3bc90f	-0.18338417
170	0xbe117daf	-0.142081
171	0x3d677530	0.056508243
172	0x3ddbfaae	0.10741173
173	0xbe6bec9b	-0.23039477
174	0xbe3a0ade	-0.18168208
175	0xbe20f0cd	-0.15716858
176	0x3d4136c5	0.047171373
177	0xbdfafcb4	-0.122552305
178	0xbe162580	-0.14662743
179	0xbe3fdde1	-0.18736984
180	0x3dfac34b	0.122442804
181	0xbd8693ce	-0.0657116
182	0x3d380c47	0.044933584
183	0x3e0200e0	0.12695646
184	0xbdf8ec2a	-0.1215442
185	0xbe23dbca	-0.16001812
186	0x3e7d276f	0.24722074
187	0xbe78fee8	-0.24315989
188	0xbe0fe5c4	-0.14052492
189	0x3d1a0aae	0.03760784
190	0x3d625f14	0.055266455
191	0xbe3d33c5	-0.1847678
192	0x3e7fdc03	0.24986272
193	0x3e60197a	0.21884719
194	0x3e801577	0.25016376
195	0xbd83b72a	-0.0643142
196	0xbe88dbc1	-0.2673016
197	0x3e259679	0.16170682
198	0xb87cad85	-6.0243085e-05
199	0x3e1f8333	0.15577392
200	0x3e87ac87	0.26498815
201	0x3de34ff3	0.110992335
202	0x3e397ad9	0.18113269
203	0x3d5b9aaf	0.053614315
204	0xbe07d095	-0.13263161
205	0xbe4c54aa	-0.19954172
206	0x3da84f54	0.08218256
207	0x3cac2947	0.021015776
208	0x3e218d7c	0.15776628
209	0x3e411056	0.18853888
210	0x3daef2d4	0.085424095
211	0xbe40c0d6	-0.18823561
212	0xbdc9070d	-0.09815798
213	0x3c0cdf8a	0.008598218
214	0x3dfff527	0.12497931
215	0xbe42422f	-0.1897056
216	0x3e6f3beb	0.233627
217	0xbe2c2b76	-0.16813454
218	0xbe405754	-0.18783313
219	0xbe37f63e	-0.17965028
220	0x3e358602	0.17726901
221	0xbd163991	-0.036675993
222	0x3c48430b	0.012223016
223	0xbeadb356	-0.33925885
224	0x3be9152a	0.0071131187
225	0xbd4d6339	-0.050143454
226	0x3e2f778c	0.17135447
227	0xbe258b4f	-0.16166423
228	0x3eaf8c42	0.34286696
229	0xbd6e9101	-0.058243755
230	0xbe0a6982	-0.1351681
231	0x3d945b5d	0.07243989
232	0x3d79b0e9	0.06095973
233	0xbe3da82a	-0.18521181
234	0x3e23c178	0.15991771
235	0x3e33e931	0.17569424
236	0x3dfd90e5	0.12381152
237	0xbcccbe7f	-0.02499318
238	0x3d62f5ac	0.055410072
239	0xbdbeaef2	-0.09310712
240	0xbdc88709	-0.09791381
241	0xbe1d4b14	-0.15360671
242	0x3e258ee1	0.16167785
243	0x3e9accee	0.30234474
244	0x3e075faa	0.13220087
245	0x3e819587	0.25309393
246	0x3d3350e4	0.043778315
247	0x3da95e86	0.08269982
248	0xbe810abf	-0.2520351
249	0xbe639676	-0.22225365
250	0xbe67eadb	-0.22648184
251	0xbd4330fe	-0.047654144
252	0xbe6fb8ed	-0.23410387
253	0x3def968d	0.11698637
254	0x3daabc4e	0.083366975
255	0xbd67ed36	-0.056622706

b2 f4 [27]
0	0xbed95f88	-0.42455697
1	0x3eb82529	0.3596585
2	0x3f94f31a	1.1636689
3	0xbe92744a	-0.28604347
4	0xbfda20d0	-1.7041264
5	0xbe90ecd0	-0.28305674
6	0x3fa6c243	1.3028034
7	0x3decd51e	0.115640864
8	0x3edc4fe4	0.43029702
9	0x3e36f358	0.17866266
10	0x3f3c7687	0.7361836
11	0xbe62a7a4	-0.22134262
12	0xbffba4a4	-1.9659619
13	0x3f2e5e46	0.681126
14	0x3f096cd8	0.5368171
15	0x3e7db27a	0.24775115
16	0x3f5971df	0.8493938
17	0x3f910cc3	1.133202
18	0x3ec57775	0.385677
19	0xbf97d142	-1.1860735
20	0xbf476551	-0.7788897
21	0x3fc76582	1.5577853
22	0x3e24beee	0.16088459
23	0x3f48859a	0.7832886
24	0x3e96e654	0.294726
25	0xbfa42809	-1.2824718
26	0xbea714b3	-0.3263298
